models/audio_event_cnn.onnx (onnx, 16210 bytes, 4 tensors)

features.0.bias f4 [8]
0	0x3d71243f	0.058872458
1	0xbe98161d	-0.2970437
2	0x3dfc1b08	0.12309843
3	0x3d2b9c01	0.041896824
4	0x3d35acea	0.044354357
5	0xbd74c617	-0.059759226
6	0xbbdd0071	-0.0067444374
7	0xbc9ae172	-0.018906329

features.3.bias f4 [16]
0	0x3c8bc48c	0.017061494
1	0x3e1a4d5f	0.15068577
2	0x3d24e944	0.040261522
3	0xbbe1daaa	-0.006892522
4	0xbd3068e3	-0.043068778
5	0x3d71d692	0.05904252
6	0x3ce3f08f	0.027824668
7	0x3d7864f0	0.060643137
8	0x3d58a7c0	0.052894354
9	0xbb9d016b	-0.004791429
10	0xbd17b9e5	-0.037042517
11	0xbc029c3d	-0.00797182
12	0xbd90b9a4	-0.07066658
13	0x3d9d1421	0.07669855
14	0xbd1b6ee9	-0.03794757
15	0xbcf72e99	-0.030173587

classifier.2.weight f4 [3, 16]
0	0xbe6c73a6	-0.23090991
1	0x3e6251f9	0.22101583
2	0xbe657b62	-0.22410348
3	0xbe50bc29	-0.20384277
4	0xbe5394ec	-0.20662278
5	0xbd9837c1	-0.07432509
6	0x3d72500c	0.05915837
7	0xbd17fefd	-0.03710841
8	0xbe5a034f	-0.21290325
9	0xbdcb39f0	-0.0992316
10	0x3e0dcee8	0.1384846
11	0x3d77c398	0.060489267
12	0x3dddc4c5	0.108285464
13	0xbda012ad	-0.07816062
14	0xbdfbfcb1	-0.123040564
15	0x3d147f9c	0.03625451
16	0x3c0fae70	0.0087696165
17	0xbe4121cd	-0.1886055
18	0x3e15938c	0.14607066
19	0xbdc47bf5	-0.095939554
20	0xbe0f8daa	-0.14018884
21	0xbac6c373	-0.001516445
22	0x3e2d1d58	0.16905725
23	0x3cd7f1df	0.02636045
24	0xbcf8df08	-0.030379787
25	0x3e0caa3f	0.13736819
26	0xbe673aef	-0.22581075
27	0x3d729b87	0.059230354
28	0xbe69a4d4	-0.22816783
29	0x3e420b1b	0.18949549
30	0xbe61601c	-0.22009319
31	0xbe205c13	-0.15660124
32	0x3e4761aa	0.1947085
33	0xbe26f24c	-0.16303366
34	0xbe36abd0	-0.17838979
35	0xbe6df655	-0.232385
36	0x3d2533ab	0.040332478
37	0x3ca1fd56	0.01977412
38	0x3e22815d	0.1586966
39	0x3e4df491	0.20112826
40	0xbc68eebe	-0.014217077
41	0xbe4beb11	-0.1991389
42	0xbd9bd24b	-0.076084696
43	0xbe8d626e	-0.27614158
44	0xbd3d4ec2	-0.046217687
45	0xbe236b0b	-0.15958802
46	0x3d84e935	0.06489793
47	0x3d5dbb0c	0.05413346

classifier.2.bias f4 [3]
0	0x3d8b58fe	0.06804083
1	0xbd8f3404	-0.06992343
2	0xbe7e7178	-0.24847972
